ppcm/models/discriminators/DIALOGPT_intent_classifier_head_best.pt (torch, 42023 bytes, 2 tensors)

mlp.weight f4 [10, 1024]
0	0xbd1208fb	-0.035653096
1	0xbe374700	-0.17898178
2	0xbd000262	-0.031252272
3	0x3d311e2e	0.043241672
4	0xbda196c8	-0.07890087
5	0x3c96c173	0.01840279
6	0xbd418d7d	-0.047254074
7	0x3c6cc83d	0.014452037
8	0x3e25dc23	0.16197257
9	0x3d3ee414	0.04660423
10	0xbd8d2ba9	-0.06893093
11	0x3db174a0	0.086648226
12	0xbcd1ebd2	-0.025625143
13	0xbc900bf7	-0.01758383
14	0x3e541714	0.20711929
15	0x3bc3a05d	0.0059700445
16	0xbd25fc8b	-0.040524047
17	0xbd7e0d26	-0.062024258
18	0xbd2b29a3	-0.041787755
19	0x3deb7ee0	0.11498809
20	0x3cd5287e	0.026020285
21	0xbd918574	-0.07105532
22	0x3c8961d4	0.01677028
23	0xbd71e529	-0.059056435
24	0xbc30cf3c	-0.010791596
25	0xbdbf2726	-0.09333639
26	0xbd281085	-0.04103138
27	0xbccf7cb3	-0.025328016
28	0xbc98eaf3	-0.01866672
29	0x3d377251	0.044786755
30	0xbd0d1d4e	-0.034451775
31	0x3e829a71	0.25508454
32	0x3d29a552	0.041417427
33	0x3e0313a8	0.12800467
34	0xbd9a3e73	-0.075314425
35	0xbe7902a0	-0.24317408
36	0x3deb993f	0.11503839
37	0xbd76509a	-0.06013546
38	0x3d38b851	0.045097653
39	0xbb5bafdf	-0.0033521575
40	0xbd2c276d	-0.042029787
41	0xbc10cd7b	-0.008838053
42	0x3cc7e94a	0.024403233
43	0x3ca99f49	0.020705836
44	0xbe252a6b	-0.16129462
45	0x3cd7188a	0.026256818
46	0xbe01eafd	-0.12687297
47	0xbdf51f1f	-0.119688265
48	0x3df371b6	0.11886923
49	0x3d19d852	0.037559815
50	0xbb36bae4	-0.0027882392
51	0x3dd16a53	0.10225358
52	0x3c125c85	0.008933191
53	0x3ddb030a	0.10693939
54	0xbdb0c9fb	-0.08632275
55	0xbd2edd98	-0.042691797
56	0x3d83576a	0.06413157
57	0xbd54c9ab	-0.051950138
58	0xbdb47a10	-0.08812344
59	0x3ea378b2	0.3192802
60	0xbe493021	-0.19647266
61	0x3d971013	0.07376113
62	0xbd6667b7	-0.056251254
63	0xbcc21b72	-0.023694728
64	0xbdc9ff4d	-0.09863148
65	0xbe722bf0	-0.23649573
66	0xbda1f26b	-0.07907566
67	0x3dc10f88	0.094267905
68	0xbe1f2f23	-0.15545325
69	0x3e00ac67	0.12565766
70	0x3c2ec6e9	0.010667541
71	0xbcc22d38	-0.023703203
72	0xbd11c0bf	-0.035584208
73	0xbd5b1232	-0.05348415
74	0x3d13ad9e	0.036054246
75	0x3e3b4a61	0.18290092
76	0x3ca7d942	0.020489339
77	0xbe6816b9	-0.22664918
78	0xbc91c992	-0.017796312
79	0xbe62b902	-0.22140887
80	0x3df0e54d	0.11762486
81	0x3e4635f7	0.19356523
82	0xbdbd4675	-0.09241954
83	0x3d2a3f6f	0.0415644
84	0xbd4372bd	-0.047716845
85	0xbe008945	-0.12552364
86	0xbdeefd83	-0.11669447
87	0x399066e5	0.00027542483
88	0x3da5c91d	0.08095
89	0x3e498e01	0.19683076
90	0xbe29a1db	-0.16565649
91	0xbd7068d3	-0.05869372
92	0xbe37b305	-0.17939384
93	0x3e3596d9	0.17733325
94	0xbc288271	-0.010285006
95	0xbd498344	-0.04919745
96	0xbd0b65ec	-0.034032747
97	0x3c69f0f3	0.014278638
98	0x3e1b25bc	0.15151113
99	0xbd1a872d	-0.03772657
100	0xbcd18a9b	-0.025578788
101	0x3af9756e	0.0019032189
102	0x3b511984	0.0031906078
103	0xbc10f794	-0.00884809
104	0x3d21a33e	0.03946232
105	0x3b1451a6	0.0022631674
106	0xbce5d5a2	-0.02805597
107	0xbe0ec747	-0.13943206
108	0xbd89f6fa	-0.0673656
109	0x3c61a973	0.01377331
110	0x3d83321f	0.06406044
111	0x3d65a83f	0.056068655
112	0xbdc8d9d4	-0.098071724
113	0xbe2a96c1	-0.1665907
114	0xbd071040	-0.03297448
115	0xbdc8dc4e	-0.09807645
116	0xbde838bf	-0.113389485
117	0xbce6f7ca	-0.028194327
118	0x3ce089ef	0.027409522
119	0x3d8b80fb	0.068117104
120	0xbe1e35e4	-0.15450245
121	0x3d385a1f	0.04500782
122	0x3e1e99da	0.15488377
123	0xbe531de1	-0.20616867
124	0x3cff5e0b	0.031172773
125	0xbdebd426	-0.115150735
126	0x3d8504e5	0.06495074
127	0x3dc97d4b	0.09838351
128	0xbbfaab32	-0.0076498026
129	0xbd068870	-0.03284496
130	0x3dd70340	0.10498667
131	0xbe8bb99a	-0.2729004
132	0xbe383b51	-0.17991377
133	0xbe6dee71	-0.2323549
134	0x3c92de3a	0.017928232
135	0x3dbf160a	0.093303755
136	0x3de27b38	0.11058658
137	0x3dab3c7b	0.08361145
138	0xbdc9d5ec	-0.098552555
139	0xbd680e21	-0.0566541
140	0x3d15ac21	0.036541108
141	0x3dd01a28	0.10161239
142	0xbdadc8d5	-0.08485571
143	0x3dbc060f	0.09180843
144	0x3de75003	0.11294558
145	0xbd8327ef	-0.06404101
146	0xbc54d179	-0.012989395
147	0x3ba081fb	0.0048983074
148	0x3cf380f3	0.029724574
149	0x3bc90df0	0.0061356947
150	0x3ce7944a	0.028268952
151	0x3c12c6c4	0.008958522
152	0xbd579cd2	-0.05263979
153	0xbc80ea21	-0.015736641
154	0xbc7551e7	-0.01497314
155	0x3deda82d	0.116043426
156	0x3bd7fe3f	0.006591588
157	0xbcc08239	-0.023499595
158	0xbc575ca0	-0.013144642
159	0x3d5d1f20	0.05398476
160	0x3d780413	0.06055076
161	0xbc89c434	-0.01681719
162	0xbc75d4d8	-0.015004359
163	0xbb891bd7	-0.004184227
164	0xbe115d8f	-0.14195846
165	0xbdf8e298	-0.12152594
166	0xbe515998	-0.20444334
167	0xbd388d67	-0.045056727
168	0x3d08ee60	0.033430457
169	0xbca6db4a	-0.020368237
170	0xbde22d67	-0.11043816
171	0x3d2b7212	0.041856833
172	0xbc4cfee8	-0.012511946
173	0x3d55f171	0.05223221
174	0xbb39fee6	-0.002838069
175	0xbdca3ced	-0.09874902
176	0xbd4b1460	-0.049579978
177	0xbdc12bc2	-0.09432174
178	0x3e2fa0d0	0.17151189
179	0xbce477fe	-0.027889248
180	0x3db16900	0.08662605
181	0xbe0238b9	-0.1271695
182	0x3d9ae26b	0.07562717
183	0xbdee42bc	-0.11633822
184	0xbde6b98a	-0.112658575
185	0x3e5c52ab	0.2151591
186	0xbab59c18	-0.0013855724
187	0x3e016fcd	0.12640305
188	0x3e2d390e	0.16916296
189	0xbd2bc120	-0.041932225
190	0xbd00a82f	-0.031410392
191	0x3dba36fc	0.09092519
192	0xbd858394	-0.06519237
193	0xbbfa518f	-0.007639117
194	0x3decabfe	0.115562424
195	0x3d0713d0	0.03297788
196	0x3d59dd23	0.053189408
197	0x3e1fa751	0.1559117
198	0x3e0da057	0.13830696
199	0xbe14cb38	-0.14530647
200	0xbdfc54ff	-0.12320899
201	0x3cfc8655	0.030825773
202	0x3d91f00c	0.071258634
203	0xbd921f4b	-0.07134875
204	0x3de65504	0.11246684
205	0xbb794832	-0.0038037417
206	0xbe853456	-0.26016492
207	0xbe3ed3c2	-0.18635467
208	0xbd4b9de0	-0.04971111
209	0xbd30f096	-0.04319819
210	0xbdaa04db	-0.08301707
211	0xbb24f18e	-0.0025168392
212	0x3d97e492	0.07416643
213	0xbdbd7d51	-0.09252418
214	0x3d350853	0.04419739
215	0x3c9c0ac8	0.01904811
216	0xbd3aa763	-0.04556979
217	0xbe161f09	-0.14660276
218	0xbc74ccdb	-0.0149414195
219	0xbdc606fe	-0.096693024
220	0xbd6bcb9b	-0.05756722
221	0x3dd08762	0.10182072
222	0x3d9806e5	0.0742319
223	0xbd9ee996	-0.07759397
224	0xbb2dcee2	-0.0026521017
225	0x3ce35d4a	0.027754445
226	0x3d47e80e	0.04880529
227	0xbdd52135	-0.10406724
228	0xbc983691	-0.018580707
229	0xbcee8a3e	-0.029118653
230	0xbd86f76e	-0.06590162
231	0x3e1ea684	0.15493208
232	0x3e369db0	0.1783359
233	0xbd4541bb	-0.04815839
234	0x3dd6f998	0.10496825
235	0x3cb217ea	0.021739919
236	0xbd213bbc	-0.039363608
237	0x3dd5efa8	0.104461014
238	0x3e258aaa	0.16166177
239	0x3abe80b9	0.0014534212
240	0x3be94d15	0.0071197846
241	0xbd38c407	-0.04510882
242	0x3d1bd220	0.038042188
243	0x3de38587	0.11109453
244	0xbdaaee12	-0.083461896
245	0x3d66501a	0.056228735
246	0xbe35ee2b	-0.17766635
247	0x3d389be1	0.045070533
248	0x3cf0beef	0.02938792
249	0xbe33648d	-0.17518826
250	0x3c53c2f6	0.0129249
251	0xbc31f1e0	-0.01086089
252	0xbe489598	-0.19588315
253	0xbd55bda1	-0.052182797
254	0xbcf36489	-0.029711025
255	0xbe04001e	-0.1289067

mlp.bias f4 [10]
0	0xbd050c31	-0.03248233
1	0xbd3153ea	-0.043292917
2	0xbd94fa75	-0.072743334
3	0xbd96216c	-0.073305935
4	0xbd707ed2	-0.058714695
5	0xbd978887	-0.073990874
6	0xbd3256af	-0.0435397
7	0xbd5e959c	-0.054341897
8	0xbd2dcfff	-0.04243469
9	0xbcd6fa82	-0.026242498
