ppcm/models/discriminators/DIALOGPT_sentiment_classifier_head_best.pt (torch, 21543 bytes, 2 tensors)

mlp.weight f4 [5, 1024]
00000000: 08ad 9bbd 167f 25be 5de5 0fbd 983f 3a3d
00000010: eead 233e bfd6 563e ff78 d2bd 0ff9 fe3d
00000020: 7e60 afbe 0531 debc d64d 6ebe 8117 143e
00000030: de99 73be 7a55 39be 0fea f4bd eeae 00be
00000040: d7aa bcbe 8f9c 02bd 90be 2d3d 4bce 52bd
00000050: 893b b1bd 3025 5c3e 2d15 1ebe 83c5 803d
00000060: ff43 ca3c dfc2 213d 1b49 563e 989a e0bd
00000070: f25c 5abd d4ee 85bd 3d86 2c3e 588d 77bd
00000080: 2db2 50be 1a6d 553b 8300 e5bd 29ac 6abb
00000090: 58b8 0ebe 5a5f 07bc a9b1 9a3d 4a2e d2bd
000000a0: aae8 f43d 8472 0f3e eb14 ce3d 6d54 55bd
000000b0: 83ce 5d3d f08c 713e 4af8 2dbe afb1 9dbd
000000c0: ca30 253e bf86 343d e29c c1bd d2bc 803d
000000d0: 3367 d83d 925f 99bc e57b 873d 0b9c 42bb
000000e0: deed 33be 1754 653e 9744 16be d905 00be
000000f0: 0f75 edbc a582 f0bd 4522 073e 2b20 c2bc
00000100: 17e7 8cbe 9457 37be cb1d a33d 5d49 9c3a
00000110: 3446 0d3e 70ad 41ba 7e9a 4ebe b41a 20be
00000120: d31a 6a3d 15f0 04be bc7b f4bd 7b02 6f3d
00000130: 8417 523e 0f11 233d 6702 1fbd ec7f 3dbd
00000140: 24a9 593c 3b17 073c c679 b1bd 43c0 e7bd
00000150: f41b 10bc 4c51 ccbd 948c 4abe fba0 38be
00000160: a8c5 0abe 1590 cfbd 89fb 1e3d 8f4b e63c
00000170: aa67 c0bd f855 3fbe 3fba abbc abb7 97bc
00000180: 518c 8dbe 2d4d 2f3e e488 843d 5a67 04bd
00000190: e4f5 debd ad64 843e c1f2 ccbc b87d 5ebd
000001a0: a2eb 63be b041 debb bda6 edbd 62d6 aa3d
000001b0: cbd3 a73d 21ac 883d 7496 463e cae6 8d3d
000001c0: 4aec 2b3e b5f0 babd e873 223d 5a70 713d
000001d0: 5073 2cbe 534f d3bd a83b 5bbe dc5b 973e
000001e0: 0711 4bbd 32cf 0d3e 16e7 e83c 8dcc 1fbe
000001f0: 3f07 98bd 807e bd3c f4f9 73be b77e 5abd
00000200: 82a0 663d 2337 c9bd 51ff f53d dc1c 52be
00000210: d2fb 55bd db71 493e 5909 d7bd 2115 64be
00000220: cdad d23b 009d 29be 441f 9e3c 0660 8bbd
00000230: 4712 8d3e d8ef a33d 0c2f bdbc 24eb 903d
00000240: 18d7 8dbd 06b6 19bc 973e 183e 0076 4d3d
00000250: 1c4f 953e 62d1 0a3e e7d0 86bd 3e4c 18be
00000260: 6b02 28bb 0930 d43d 5c72 d0bd d3c2 773d
00000270: 4abc 753d 7821 9fbe b35c a03e 7feb ae3c
00000280: 7a54 fd3d 5394 cdbc 73d1 c8bc 4ed3 fa3d
00000290: e695 e93d bb91 49bd 3857 61bd 7a18 1fbe
000002a0: a336 203e e2f4 013e fdcf 99bd a554 1b3e
000002b0: b9f2 453e d2eb 27be 7712 58bd e6be 433d
000002c0: 2330 603e d5ef 49be 2bef b9bd c803 623d
000002d0: e12c d3bc 117b 133c 8076 e9bd 179d 84bc
000002e0: 0d6f ccbd ba1b 7cbe 4f4c 9dbd 362f c2bb
000002f0: 9872 ec3c 92ba 183c 432c 2cbe bf29 7e3b
00000300: 581b 4dbd e982 cd3b 2208 413e 42f5 993d
00000310: 6a17 9a3d b6cd 0dbe c5db 4cbe 13c6 e53c
00000320: db6a f53b b259 55bc 36cd 2cbd a173 003e
00000330: 514f da3e 6a33 133e d128 00bd 08e0 a5bd
00000340: 9b87 033e a118 3abd 7fd3 243e 563b 7cbd
00000350: 14ef 153e b2f5 b33d 558d b43d 1846 16be
00000360: 4a48 2abe 1b44 493e 8ddf 2b3b e023 233d
00000370: 3b82 513e 7bae b7bd 36c4 8bbd 75dc 173e
00000380: 1ed7 bebd 2d48 9e3e 95f5 2b3d 1b19 723d
00000390: d960 613d da80 67bc 8559 b0be e4b0 34bd
000003a0: ac25 debd f082 6fbd 2a16 873b 8a14 0c3e
000003b0: 0139 aa3d 5546 bfbd 5124 4f3e e7cd f13d
000003c0: 2318 6dbd cae4 8ebd 751e 8b3d 1650 e3bc
000003d0: eec9 5fbd 3b23 0b3e b5ee 273d 12fb 293e
000003e0: 7c61 4abe d8b3 e83d 90a6 533e 0a5a 9d3b
000003f0: f8bb af3d 19fa f7bd a753 19be 2c29 8c3c
-0.076013625 -0.1616176 -0.035130847 0.045470804 0.15984318 0.20980357 -0.102769844 0.12449848
-0.34253305 -0.027122984 -0.2327188 0.14462091 -0.23789164 -0.18099013 -0.11958706 -0.1256673
-0.3684909 -0.031887587 0.042418063 -0.051466268 -0.086539336 0.21498561 -0.15437765 0.06287672
0.024690626 0.039492484 0.20926325 -0.109669864 -0.053311296 -0.065396935 0.16848083 -0.06043753
-0.20380469 0.003256625 -0.11181738 -0.0035808182 -0.13937509 -0.00826248 0.07553417 -0.10262735
0.1195844 0.14008528 0.100625835 -0.052082468 0.054152023 0.2358892 -0.16989246 -0.07699906
0.16131893 0.044073816 -0.09453751 0.062860146 0.10566559 -0.01872233 0.06615428 -0.002969506
-0.17571208 0.22395359 -0.14674602 -0.1250223 -0.028986482 -0.117436685 0.13196667 -0.02369698
-0.27520058 -0.17904502 0.07964667 0.001192372 0.13796312 -0.000738821 -0.20176122 -0.15635186
0.057154488 -0.12982209 -0.11937663 0.058351975 0.20516783 0.03981119 -0.03882065 -0.046264574
0.013284955 0.008245285 -0.086658046 -0.11315968 -0.008795727 -0.09976444 -0.19780189 -0.18030159
-0.13551962 -0.10134903 0.0388141 0.028112201 -0.09394772 -0.18685138 -0.020962832 -0.018520197
-0.27646115 0.17119284 0.06471422 -0.032325126 -0.10886744 0.2585806 -0.025018098 -0.054319113
-0.22257856 -0.006782733 -0.116040684 0.083416715 0.08194693 0.06673456 0.19393331 0.06928785
0.16789356 -0.091279425 0.039661318 0.058945037 -0.16840863 -0.10317864 -0.21409476 0.2956227
-0.049576785 0.1384857 0.028430503 -0.15605374 -0.07423257 0.023131609 -0.23825818 -0.0533435
0.056305416 -0.098249696 0.12011588 -0.20518821 -0.052242108 0.19672339 -0.1049983 -0.22273685
0.00642941 -0.16563797 0.019302018 -0.068054244 0.27553007 0.08004731 -0.023093723 0.070760995
-0.069257915 -0.009381777 0.14867626 0.05016136 0.29161918 0.13556436 -0.06582814 -0.14872834
-0.0025636207 0.103607245 -0.10178062 0.060488533 0.05999402 -0.31080222 0.31320724 0.021352528
0.12369628 -0.02509514 -0.024513936 0.122473344 0.11405544 -0.049211245 -0.05501482 -0.15536681
0.15645842 0.12691072 -0.07510374 0.15169008 0.19330873 -0.16398552 -0.052751984 0.047789477
0.21893363 -0.19720395 -0.09078821 0.055179387 -0.025778236 0.009001509 -0.11399555 -0.016188188
-0.09982119 -0.24619952 -0.0768057 -0.005926038 0.028863236 0.009321826 -0.1681376 0.0038782207
-0.050074905 0.006271709 0.18850759 0.07517482 0.07523997 -0.13848004 -0.2000571 0.02804855
0.007489545 -0.013021873 -0.042187892 0.12544109 0.4263864 0.14375082 -0.031288926 -0.08099371
0.12844698 -0.045433644 0.16096304 -0.061580025 0.14641982 0.08787097 0.088160194 -0.14675176
-0.16629139 0.19654886 0.0026225776 0.039829135 0.20459835 -0.089688264 -0.06824534 0.14830191
-0.09318374 0.3091444 0.041982252 0.059105974 0.055024 -0.014129842 -0.34443298 -0.04411401
-0.10847029 -0.05847448 0.004122515 0.1367971 0.08311654 -0.09339587 0.20228697 0.11806851
-0.057884347 -0.06977232 0.067929186 -0.027748149 -0.054635935 0.13587658 0.040999133 0.16599682
-0.1976375 0.113624275 0.20669007 0.0048019933 0.08580774 -0.12108249 -0.14973317 0.017109476

mlp.bias f4 [5]
00000000: ebdc c6bb d66f f8bd 7f1b 35be 7f7e 72be
00000010: 994a 8d3e
-0.006068816 -0.12130706 -0.1768627 -0.23681067 0.27595976
