ppcm/models/discriminators/DIALOGPT_sentiment_classifier_head_best.pt (torch, 21543 bytes, 2 tensors)

mlp.weight f4 [5, 1024]
0	0xbd5a84e0	-0.053349376
1	0xbe146c2f	-0.14494394
2	0xbd11d145	-0.035599966
3	0x3d4a4056	0.04937776
4	0x3e2a4dfe	0.16631314
5	0x3e332aaf	0.17496751
6	0xbdd21f03	-0.10259821
7	0x3df63d3b	0.120233975
8	0xbea1076b	-0.31450972
9	0xbcbc04fe	-0.0229516
10	0xbe67529c	-0.22590107
11	0x3e0c02e6	0.1367298
12	0xbe6465f0	-0.22304511
13	0xbe2f7620	-0.17134905
14	0xbddad75b	-0.10685607
15	0xbdd080f2	-0.10180844
16	0xbeaf90b5	-0.3429009
17	0xbcceeec5	-0.025260339
18	0x3d1f0d84	0.03883125
19	0xbd200621	-0.039068345
20	0xbdcb900d	-0.09939585
21	0x3e493ee4	0.19652897
22	0xbe10b8fe	-0.14133069
23	0x3d8f50be	0.06997822
24	0x3d6ae731	0.057349388
25	0x3d63e944	0.05564238
26	0x3e4faa27	0.20279752
27	0xbdf6ee18	-0.120571315
28	0xbd8552e7	-0.06509953
29	0xbd8b5202	-0.06802751
30	0x3e2ce263	0.16883235
31	0xbd3568e3	-0.04428948
32	0xbe2bdca1	-0.16783382
33	0xb90e5e6f	-0.00013577355
34	0xbdaca633	-0.084301375
35	0xbb612887	-0.0034356432
36	0xbe143dcd	-0.144767
37	0x3baaf473	0.005217129
38	0x3d5cadcb	0.05387668
39	0xbdcb83f8	-0.099372804
40	0x3dde769b	0.10862466
41	0x3dfc56a2	0.123212114
42	0x3dc7f06d	0.097626545
43	0xbd2497a2	-0.04018367
44	0x3d935c4c	0.071953386
45	0x3e604609	0.21901716
46	0xbe0f9cc2	-0.14024642
47	0xbdaa5fa0	-0.0831902
48	0x3e2c5ef9	0.16833104
49	0x3d427578	0.04747531
50	0xbdc896a6	-0.09794359
51	0x3d71bc9f	0.059017774
52	0x3d8a0ece	0.06741105
53	0xbd3ca346	-0.046054147
54	0x3d96d253	0.07364335
55	0xbb69cc57	-0.0035674775
56	0xbe24d509	-0.16096891
57	0x3e577280	0.21039772
58	0xbdf6abfb	-0.120445214
59	0xbdde6741	-0.10859538
60	0xbd0cb002	-0.03434754
61	0xbdd5ad9c	-0.10433504
62	0x3dc72b82	0.09725095
63	0xbd3f123c	-0.04664825
64	0xbe82b8ae	-0.25531524
65	0xbe2c5df5	-0.16832717
66	0x3dc004ea	0.09375937
67	0xbb6dbf18	-0.003627723
68	0x3e0a4cb9	0.1350583
69	0x3b61a306	0.0034429445
70	0xbe44cfe2	-0.19219926
71	0xbe176116	-0.14783129
72	0x3d70f634	0.058828548
73	0xbe07aede	-0.132503
74	0xbde0f30b	-0.10983857
75	0x3d4a30b2	0.049362846
76	0x3e2e57b9	0.17025651
77	0x3d61d7ba	0.055137374
78	0xbce6db18	-0.028180644
79	0xbcec6465	-0.028856466
80	0xbb292f86	-0.002581568
81	0x3c3f9785	0.01169384
82	0xbd7f1bee	-0.062282495
83	0xbdf1a9f9	-0.11799998
84	0xbbef1bf0	-0.0072970316
85	0xbda98f8f	-0.08279335
86	0xbe329b78	-0.17442119
87	0xbe45b99d	-0.19309087
88	0xbe06afb4	-0.13152963
89	0xbd9d476c	-0.07679638
90	0x3d794c69	0.060863886
91	0x3d2f667c	0.042822346
92	0xbd92e07e	-0.07171725
93	0xbe4156ab	-0.18880717
94	0xbcc0d79d	-0.023540312
95	0x3b1240b0	0.0022316389
96	0xbe6ae172	-0.22937563
97	0x3e30fc38	0.17283714
98	0x3d88d55c	0.0668132
99	0xbcdf4bde	-0.027257856
100	0xbdc7ab46	-0.09749465
101	0x3e84989a	0.25897676
102	0xbcd976a3	-0.026545828
103	0xbd52bd16	-0.051449858
104	0xbe555375	-0.20832618
105	0xbc6b71a7	-0.014370359
106	0xbddec1b0	-0.10876787
107	0x3d98d81d	0.07463095
108	0x3d83d4bc	0.0643706
109	0x3d930ed9	0.07180566
110	0x3e4e8678	0.20168483
111	0x3d83f2c8	0.06442791
112	0x3e191163	0.14948039
113	0xbdc02659	-0.09382314
114	0x3d28c3ed	0.041202474
115	0x3d5341d9	0.05157647
116	0xbe127373	-0.14301853
117	0xbddb7465	-0.1071556
118	0xbe5209f8	-0.20511615
119	0x3e8c4c88	0.2740214
120	0xbd1f2092	-0.03884942
121	0x3dc89d1c	0.09795591
122	0x3d2043dc	0.039127216
123	0xbe155f25	-0.14587076
124	0xbd966b63	-0.07344701
125	0x3c0ebb4c	0.008711647
126	0xbe4fc858	-0.20291269
127	0xbd1ed8a3	-0.03878082
128	0x3d1c496d	0.03815596
129	0xbd9372ff	-0.07199668
130	0x3dddef64	0.10836676
131	0xbe425aae	-0.18979904
132	0xbd3d8dfb	-0.04627798
133	0x3e3306f8	0.17483127
134	0xbdbcc280	-0.092167854
135	0xbe497d42	-0.19676688
136	0x3c1c9d5e	0.009559004
137	0xbe2b7163	-0.16742472
138	0x3cc01384	0.023446806
139	0xbdb17345	-0.08664564
140	0x3e7986b0	0.24367785
141	0x3daaa033	0.08331337
142	0xbc283d95	-0.010268589
143	0x3d36a639	0.044592116
144	0xbd4475c9	-0.04796389
145	0xbc1c7a69	-0.009550669
146	0x3e129039	0.14312829
147	0x3d325b52	0.04354412
148	0x3e91e083	0.284916
149	0x3e0ce960	0.137609
150	0xbd86422c	-0.0655559
151	0xbe09404d	-0.13403435
152	0x3bde7a8e	0.006789512
153	0x3dd16ca3	0.10225799
154	0xbdb3807f	-0.08764743
155	0x3d442714	0.04788883
156	0x3d6baacd	0.057535935
157	0xbe8c9e23	-0.274644
158	0x3e8d41ce	0.27589267
159	0x3d001f7c	0.031280026
160	0x3dfd6afd	0.12373922
161	0xbcdba253	-0.0268108
162	0xbc73b0bf	-0.0148736825
163	0x3de1407d	0.10998628
164	0x3de0a01a	0.10968037
165	0xbd803e2b	-0.062618576
166	0xbd4834fd	-0.04887866
167	0xbdef694a	-0.11690004
168	0x3e183ca9	0.1486689
169	0x3de96ae7	0.11397343
170	0xbd762223	-0.06009115
171	0x3e241dc0	0.16026974
172	0x3e2aed8a	0.16692176
173	0xbe243afb	-0.16038124
174	0xbd3936fe	-0.04521846
175	0x3d5ec4ab	0.054386776
176	0x3e633e92	0.22191837
177	0xbe308b2e	-0.17240593
178	0xbd8ca464	-0.068672925
179	0x3d4a1f47	0.049346235
180	0xbd133e56	-0.03594812
181	0x3bda86ec	0.006668916
182	0xbdc52b06	-0.09627347
183	0xbb9c4c1b	-0.0047698147
184	0xbdc264bd	-0.094918706
185	0xbe605799	-0.21908416
186	0xbdb6734a	-0.089087084
187	0xbc53e173	-0.012932169
188	0x3cb955fa	0.022624005
189	0x3c630936	0.0138571765
190	0xbe1c711c	-0.15277523
191	0x3c88bb30	0.01669082
192	0xbd54ae8b	-0.05192427
193	0xbc0b508d	-0.0085030915
194	0x3e1de0f4	0.15417844
195	0x3d905cf4	0.070489794
196	0x3da376f9	0.079816766
197	0xbe1d545b	-0.1536421
198	0xbe3c2b4e	-0.18375894
199	0x3c3fbb55	0.011702378
200	0xbb3b101e	-0.0028543542
201	0xbc10b450	-0.008832052
202	0xbd2314a3	-0.039814603
203	0x3dde0bb4	0.10842076
204	0x3ec82e3e	0.3909778
205	0x3e1bc812	0.1521304
206	0xbd0ae913	-0.033913683
207	0xbd8e9d9b	-0.069636546
208	0x3e012d7d	0.12615009
209	0xbd3fe3f2	-0.046848245
210	0x3e0a0243	0.13477425
211	0xbd81e4d6	-0.06342475
212	0x3e08891a	0.1333355
213	0x3d94763b	0.07249113
214	0x3d92661e	0.071483836
215	0xbe083b82	-0.1330395
216	0xbe1e191c	-0.15439266
217	0x3e486ac5	0.1957198
218	0x3c4e09c7	0.012575573
219	0x3cac150f	0.021006135
220	0x3e374bb8	0.17899978
221	0xbdafdca0	-0.08587003
222	0xbd594033	-0.05303974
223	0x3e14b853	0.14523439
224	0xbd9e3f93	-0.077269696
225	0x3e92ce32	0.2867294
226	0x3d5fcfca	0.054641522
227	0x3da204f0	0.07911098
228	0x3d5d113e	0.05397152
229	0xbc6104ac	-0.013734024
230	0xbeaa48e2	-0.3325873
231	0xbd23668d	-0.039892722
232	0xbdbe47f2	-0.09291066
233	0xbd4ebeef	-0.050475057
234	0x3b510263	0.0031892292
235	0x3dfe9f5c	0.12432739
236	0x3d84e044	0.06488088
237	0xbdbcf793	-0.092269085
238	0x3e136cfa	0.1439704
239	0x3ddb6af3	0.10713758
240	0xbd6a4751	-0.05719692
241	0xbd097b3b	-0.033564787
242	0x3d6dc47c	0.05804871
243	0xbcc4542e	-0.023965921
244	0xbcf1aaa3	-0.029500311
245	0x3e0e0ae9	0.1387135
246	0x3d2129f6	0.039346658
247	0x3e200f84	0.15630919
248	0xbe3c10d1	-0.1836579
249	0x3de146c9	0.10999829
250	0x3e2c9af3	0.16855983
251	0x3cc65ce4	0.024214216
252	0x3dad49a1	0.08461309
253	0xbde34246	-0.11096625
254	0xbdff10e7	-0.12454396
255	0x3cb3063d	0.02185356

mlp.bias f4 [5]
0	0x3c194008	0.009353645
1	0xbd8e3ef8	-0.06945604
2	0xbddff7e1	-0.10935951
3	0xbe139bae	-0.14414856
4	0x3e233b7b	0.15940659
