ppcm/models/discriminators/DIALOGPT_emotion_classifier_head_best.pt (torch, 25639 bytes, 2 tensors)

mlp.weight f4 [6, 1024]
-0.109161764 -0.358789 -0.25882238 -0.10584743 0.21142101 -0.014953716 0.09793039 -0.0013919759
0.04080777 -0.048116136 0.37278014 -0.16916478 0.09028246 0.10565968 0.22898684 0.026078949
0.12259973 -0.14226548 0.10629138 -0.02164491 -0.099285774 -0.10483043 0.13510305 -0.11889962
-0.25153202 -0.34586936 0.023569534 -0.049616303 -0.26416066 0.0586435 0.067254424 0.06755371
0.077040926 0.15472116 -0.011875312 -0.034439433 0.19055001 -0.25910652 0.033153042 0.085371725
-0.002072752 -0.00922137 0.18229747 -0.101250194 0.12880832 0.18295352 0.19498 -0.03158604
0.042707637 0.010364422 0.22962308 0.30327785 -0.07934011 0.08773718 -0.06682704 -0.016888363
-0.044726286 -0.08197766 0.1432037 0.0120788915 0.24715099 0.0068452433 -0.09801722 -0.10915616
0.1718433 -0.07655135 -0.062181555 -0.057262387 -0.315414 -0.084919244 -0.25749812 -0.17268296
0.023313975 -0.3519138 -0.08784864 -0.015623613 0.18470676 0.20025225 0.07902049 -0.03078334
-0.09737437 -0.18727113 -0.063796826 -0.13164432 0.35645548 -0.094581224 -0.10973866 0.19856624
0.14846069 -0.015323216 -0.07920473 -0.018930906 -0.030012839 -0.08564584 0.1902706 0.24198878
0.0036298032 -0.05855085 -0.051465757 0.0550472 -0.17804636 0.13393484 -0.029015332 -0.12846997
0.08914661 -0.007725193 -0.13678715 -0.07325263 0.10444193 0.03218498 0.12516043 0.035009902
-0.22850622 0.2538732 0.23704842 0.1432218 -0.067914724 0.25595403 0.08704247 -0.12567985
-0.123714164 -0.060569666 0.28232342 0.14840825 0.064982206 0.10672213 0.109879956 -0.090346396
0.089618444 0.067263514 -0.15128525 0.15989204 0.057084955 -0.16130091 -0.20828734 -0.2914178
0.07774082 0.25388393 -0.073355146 0.004581049 0.009480857 0.051813353 0.05249183 0.00936301
0.1045962 -0.29337168 0.06214781 -0.18651894 -0.12984376 -0.19669531 -0.0455636 0.2308793
-0.03190572 0.06963047 -0.2789947 -0.004560925 -0.13931546 0.20751068 -0.0006285045 0.12458323
0.13522969 0.097868085 0.21501264 0.20594087 -0.009554693 0.016023794 0.1285488 0.049639534
0.13573648 -0.060110517 0.040328637 0.21553479 0.06930101 0.13990104 -0.10471908 0.11779034
-0.3075868 0.3465593 0.07995765 -0.15603083 0.044510588 0.22914124 -0.107998416 -0.054891568
0.048409358 0.014079994 -0.16604811 -0.045338336 0.007211936 -0.05670627 0.03710221 0.22865139
0.024769746 0.00063478097 0.29087543 0.03440067 -0.13443953 0.11774066 -0.26301244 0.15547812
-0.053719282 -0.06274694 0.29271698 -0.013359189 -0.18157984 0.11704115 -0.0022765715 0.016974106
0.21928813 -0.0033645735 -0.3917724 0.24286747 0.2581602 -0.074131414 0.01618464 0.24885723
0.26103154 -0.16158056 0.014665841 0.3436859 0.12785754 0.19727468 0.13130404 -0.013511076
0.21987686 0.119380206 0.17001313 0.06424375 -0.03177585 -0.023526845 -0.17202738 -0.085144185
0.27336437 0.09832749 0.093923666 0.05023867 0.010390461 0.07072548 -0.17385608 -0.121856615
0.17130339 -0.37305343 -0.09235581 -0.008337335 0.09973987 0.021837076 -0.12694854 -0.2818901
0.042684715 -0.13804062 -0.11286036 -0.032207314 -0.14191425 -0.03740888 -0.09018287 -0.16126043
00000000: 3490 dfbd 31b3 b7be 5e84 84be 8ac6 d8bd
00000010: c07e 583e 6e00 75bc ba8f c83d f672 b6ba
00000020: 0c26 273d 6d15 45bd 0add be3e 8839 2dbe
00000030: 03e6 b83d 1a64 d83d 877b 6a3e 85a3 d53c
00000040: 9115 fb3d 0bae 11be 4caf d93d ab50 b1bc
00000050: 5756 cbbd 56b1 d6bd 7458 0a3e a581 f3bd
00000060: cec8 80be ca15 b1be e514 c13c 773a 4bbd
00000070: 1140 87be 2b34 703d b0bc 893d 9959 8a3d
00000080: a2c7 9d3d 396f 1e3e ab90 42bc 5d10 0dbd
00000090: 8b1f 433e 9ca9 84be 7ccb 073d 5fd7 ae3d
000000a0: 02d7 07bb 3b15 17bc 30ac 3a3e 435c cfbd
000000b0: 54e6 033e 2b58 3b3e d6a8 473e 5d60 01bd
000000c0: 34ee 2e3d 89cf 293c 5022 6b3e 3c47 9b3e
000000d0: 117d a2bd 8daf b33d 9ddc 88bd 7759 8abc
000000e0: e932 37bd e7e3 a7bd fea3 123e 8be6 453c
000000f0: 2615 7d3e 104e e03b 41bd c8bd 448d dfbd
00000100: b1f7 2f3e f4c6 9cbd 16b2 7ebd f78b 6abd
00000110: f27d a1be 24ea adbd cbd6 83be cdd3 30be
00000120: f3fc be3c 0c2e b4be fde9 b3bd 2ffa 7fbc
00000130: c523 3d3e ed0e 4d3e 7fd5 a13d 582d fcbc
00000140: 376c c7bd 01c4 3fbe e9a7 82bd c5cd 06be
00000150: 5581 b63e cdb3 c1bd aabe e0bd f354 4b3e
00000160: 1406 183e 3a0e 7bbc 1736 a2bd fd14 9bbc
00000170: 7cdd f5bc 1667 afbd 4cd6 423e e8cb 773e
00000180: fee1 6d3b 04d3 6fbd c2cd 52bd 2c79 613d
00000190: c951 36be 3726 093e 90b1 edbc a28d 03be
000001a0: 7f92 b63d 9e23 fdbb ee11 0cbe 7a05 96bd
000001b0: a7e5 d53d 66d4 033d 0e2a 003e 8b66 0f3d
000001c0: 89fd 69be abfb 813e d2bc 723e bca8 123e
000001d0: e016 8bbd 680c 833e 5343 b23d 38b2 00be
000001e0: da5d fdbd e617 78bd b28c 903e 55f8 173e
000001f0: 6415 853d 2291 da3d be08 e13d 8807 b9bd
00000200: e089 b73d 74c1 893d 85ea 1abe bdba 233e
00000210: ead1 693d 112c 25be 4749 55be b734 95be
00000220: 9436 9f3d 13fd 813e 393b 96bd a01c 963b
00000230: 9955 1b3c 3d3a 543d ac01 573d 4f67 193c
00000240: 8836 d63d d034 96be b48e 7e3d d2fe 3ebe
00000250: c3f5 04be 7f6a 49be e6a0 3abd a06b 6c3e
00000260: 92af 02bd 6b9a 8e3d 65d8 8ebe d073 95bb
00000270: b6a8 0ebe ae7d 543e 39c2 24ba 7e25 ff3d
00000280: a779 0a3e 106f c83d 462c 5c3e 2ae2 523e
00000290: 498b 1cbc 5544 833c 4ca2 033e d352 4b3d
000002a0: 81fe 0a3e 7236 76bd a42f 253d 27b5 5c3e
000002b0: b0ed 8d3d 3842 0f3e f576 d6bd 103c f13d
000002c0: 047c 9dbe 3870 b13e d6c0 a33d 8cc6 1fbe
000002d0: bc50 363d 00a4 6a3e 462e ddbd fbd5 60bd
000002e0: e448 463d c6af 663c 8408 2abe b1b4 39bd
000002f0: 1b52 ec3b d544 68bd 7df8 173d 9723 6a3e
00000300: ece9 ca3c 6e67 263a a0ed 943e b8e7 0c3d
00000310: 84aa 09be 0422 f13d 91a9 86be a835 1f3e
00000320: c008 5cbd 7881 80bd 00df 953e 80e0 5abc
00000330: 11f0 39be 45b3 ef3d 8832 15bb 480d 8b3c
00000340: 118d 603e 2d80 5cbb 6496 c8be 40b2 783e
00000350: 932d 843e 36d2 97bd a695 843c 6ed4 7e3e
00000360: eda5 853e 6075 25be ff48 703c 99f7 af3e
00000370: 16ed 023e 6002 4a3e 9174 063e 8f5d 5dbc
00000380: 6627 613e 9c7d f43d ec17 2e3e 3a92 833d
00000390: 6527 02bd 5fbb c0bc f227 30be 1360 aebd
000003a0: 6af6 8b3e ec5f c93d 0d5b c03d 10c7 4d3d
000003b0: c13c 2a3c 85d8 903d 5407 32be f68f f9bd
000003c0: 286a 2f3e dc00 bfbe 0b25 bdbd 5199 08bc
000003d0: 6b44 cc3d abe3 b23c ccfe 01be e653 90be
000003e0: 2bd6 2e3d 855a 0dbe 5523 e7bd d1eb 03bd
000003f0: f851 11be 0e3a 19bd ccb1 b8bd 7421 25be

mlp.bias f4 [6]
-0.028339775 -0.030302845 0.019125782 -0.005589506 -0.012456366 -0.03373317
00000000: d128 e8bc ac3d f8bc acad 9c3c 2d28 b7bb
00000010: c915 4cbc cb2b 0abd
